mlp/model.pth (torch, 817088 bytes, 4 tensors)

weight f4 [256, 784]
-0.01866258 0.009895539 0.00011410136 -0.010721497 -0.010953732 -0.03451782 -0.013883503 -0.032972656
-0.036495503 -0.008566356 0.017060006 0.031485505 -0.019738317 0.049409278 0.08025297 0.018047255
0.029449 0.062387493 -0.019381981 -0.020744173 -0.010735687 -0.026614888 -0.021372242 0.026780117
0.012558563 0.0027209227 -0.031221965 -0.017488081 0.028560666 0.030814813 -0.009314787 -0.021148281
0.006958145 -0.016697109 -0.04646092 -0.07362162 -0.091033764 -0.005468068 0.00070771587 -0.037801117
-0.001509167 0.05013295 0.041219812 -0.0029936724 -0.020849138 0.035140175 0.04033427 -0.04802213
-0.049578503 -0.010789817 -0.0073413993 -0.020333229 0.015083231 -0.0074429694 -0.014219135 0.03045344
-0.028838707 -0.00832402 -0.033095445 -0.002889802 -0.0009438209 -0.025428189 -0.06659803 -0.03636265
-0.083899885 -0.0723793 -0.033831894 0.042031214 0.0017116393 -0.024832638 -0.055213027 -0.028296895
-0.0236524 0.010711633 0.020198697 -0.0071586147 -0.07990591 -0.04607996 -0.067379035 0.0009541147
-0.023720708 -0.020833993 -0.0013742709 -0.00040041102 0.012178437 0.0028911016 -0.012841304 -0.05046052
-0.057388175 -0.04931282 -0.061850667 -0.07189741 -0.015361106 -0.033213634 -0.012983857 0.01144933
0.018768962 -0.02750746 -0.0414452 0.024080947 0.0062966896 0.00040106103 -0.053544015 -0.01686184
-0.019842401 -0.023974326 -0.0132500995 -0.02935402 -0.008435847 -0.00049436814 0.032654196 -0.011939739
-0.017455555 0.015157607 0.026799697 0.017016767 -0.02835935 -0.032459423 -0.08280626 -0.06555753
-0.03955096 -0.056254648 -0.00983898 0.06254532 -0.006564965 0.0075060707 -0.028871924 0.031210983
0.022481926 0.046251167 -0.050650373 -0.064504094 -0.037982926 -0.0663478 -0.03206642 -0.05037712
-0.02140585 -0.007443125 0.0027828123 0.0018210353 -0.030151997 -0.018294664 -0.02237041 -0.006403505
-0.055600815 -0.046094995 -0.057791974 -0.011419968 -0.05619247 -0.040963627 0.038844906 0.052024033
0.071590595 -0.023694593 -0.034191396 -0.022208748 0.01217029 0.040260963 -0.0076627806 -0.056911025
-0.0270014 -0.027476642 -0.06565532 -0.026871396 -0.007370659 0.014818317 0.02237679 0.0256883
0.024685679 0.035051104 0.026614198 0.021687027 -0.030245334 -0.022120517 -0.061668098 -0.004218447
-0.0751056 -0.023427485 0.05388708 -0.014263286 0.07196744 -0.02023462 -0.059938926 -0.021859603
0.038157213 -0.01269244 -0.020697419 -0.087209225 -0.042296503 0.01353727 -0.05256204 -0.037653785
-0.021307044 0.048585866 0.018090116 0.010037633 0.012461525 0.024084255 -0.006079583 -0.028423578
-0.0025849969 -0.022923939 -0.0398706 -0.011935826 -0.09813083 -0.04048126 0.038139574 0.008982192
0.06086663 -0.0013380963 0.00550986 0.02269078 -0.021632142 0.009980415 -0.04141385 -0.10752114
-0.009697984 -0.012587348 -0.029036762 0.0066524176 -0.0076549314 0.049920607 0.038042992 0.051828664
-0.014276182 0.019736253 -0.03200302 0.018664738 -0.008488679 -0.059864003 -0.020306908 -0.033949133
-0.08978534 -0.065013185 -0.008293677 0.008975188 0.055425446 -0.014162423 -0.060471587 -0.0059419936
-0.012945821 -0.0016012823 -0.05718151 -0.08050969 -0.017358428 -0.0070849806 0.007078673 -0.0055264104
-0.022244107 0.02549291 0.059505854 0.009631779 0.0009537942 0.025723593 -0.009909425 0.034229003
00000000: 44e2 98bc e620 223c b449 ef38 38a9 2fbc
00000010: 4877 33bc 8f62 0dbd a277 63bc 560e 07bd
00000020: 4f7c 15bd e759 0cbc 6dc1 8b3c f2f6 003d
00000030: 40b2 a1bc 6261 4a3d ab5b a43d d6d7 933c
00000040: 073f f13c 078a 7f3d f6c6 9ebc afef a9bc
00000050: bce4 2fbc 7707 dabc d714 afbc fa61 db3c
00000060: 6ec2 4d3c 8251 323b 35c5 ffbc 2a43 8fbc
00000070: 0ff8 e93c 596f fc3c 0c9d 18bc 293f adbc
00000080: 2701 e43b 60c8 88bc ce4d 3ebd efc6 96bd
00000090: e96f babd 7b2d b3bb 0286 393a 58d5 1abd
000000a0: 3ecf c5ba 3558 4d3d 1bd6 283d 7d31 44bb
000000b0: d0cb aabc 25ef 0f3d 8c35 253d dab2 44bd
000000c0: d412 4bbd c6c7 30bc 1f90 f0bb df91 a6bc
000000d0: a81f 773c 27e4 f3bb 60f7 68bc 7e79 f93c
000000e0: 273f ecbc 7861 08bc 178f 07bd d562 3dbb
000000f0: c06a 77ba c74e d0bc 8c64 88bd 01f1 14bd
00000100: b4d3 abbd 993b 94bd 5093 0abd ec28 2c3d
00000110: 1659 e03a d16d cbbc 0e27 62bd e4ce e7bc
00000120: aec2 c1bc d87f 2f3c bd77 a53c d092 eabb
00000130: b6a5 a3bd 57be 3cbd 05fe 89bd 8e1d 7a3a
00000140: ee51 c2bc 0dac aabc e120 b4ba 42ee d1b9
00000150: 1188 473c a378 3d3b 5564 52bc b1af 4ebd
00000160: dd0f 6bbd 3dfc 49bd 2057 7dbd f33e 93bd
00000170: 26ad 7bbc 050b 08bd 3eba 54bc f895 3b3c
00000180: 5ec1 993c 5357 e1bc 71c2 29bd 6845 c53c
00000190: 7654 ce3b 8045 d239 f850 5bbd d721 8abc
000001a0: 888c a2bc ce65 c4bc f216 59bc d777 f0bc
000001b0: 8236 0abc 7c98 01ba 68c0 053d e59e 43bc
000001c0: f4fe 8ebc 9d57 783c 0a8b db3c bf66 8b3c
000001d0: de51 e8bc 2cf4 04bd 5496 a9bd 0743 86bd
000001e0: 3000 22bd 466b 66bd ac33 21bc c317 803d
000001f0: eb1e d7bb 7cf5 f53b d084 ecbc 2dae ff3c
00000200: 042c b83c dd71 3d3d c476 4fbd b91a 84bd
00000210: fc93 1bbd 5be1 87bd 1458 03bd 3d58 4ebd
00000220: 525b afbc 75e5 f3bb d85f 363b ceaf ee3a
00000230: 5201 f7bc b1de 95bc 2642 b7bc 7ed4 d1bb
00000240: aebd 63bd 1bce 3cbd 47b7 6cbd d11a 3bbc
00000250: 132a 66bd 7ac9 27bd d61b 1f3d 2717 553d
00000260: 179e 923d 2a1b c2bc 470c 0cbd 1fef b5bc
00000270: e565 473c aee8 243d 1018 fbbb 891b 69bd
00000280: 0a32 ddbc b216 e1bc 4c76 86bd 6721 dcbc
00000290: 9285 f1bb 87c8 723c 884f b73c 4570 d23c
000002a0: 9f39 ca3c bf91 0f3d 0506 da3c fea8 b13c
000002b0: 10c5 f7bc 1636 b5bc b097 7cbd e63a 8abb
000002c0: f7d0 99bd ffea bfbc b3b8 5c3d 8fb0 69bc
000002d0: aa63 933d 13c3 a5bc 8582 75bd e912 b3bc
000002e0: bd4a 1c3d f4f3 4fbc a28d a9bc c09a b2bd
000002f0: 193f 2dbd 6dcb 5d3c 4b4b 57bd db3a 1abd
00000300: 1c8c aebc f901 473d b931 943c e274 243c
00000310: 6d2b 4c3c 584c c53c 3d37 c7bb 90d8 e8bc
00000320: 0d69 29bb fcca bbbc 5b4f 23bd 7c8e 43bc
00000330: d1f8 c8bd adcf 25bd 3e38 1c3d 0b2a 133c
00000340: 4a4f 793d 1063 afba 0e8c b43b 04e2 b93c
00000350: e435 b1bc e584 233c 92a1 29bd 0b34 dcbd
00000360: 4be4 1ebc 2a3b 4ebc 81de edbc 86fc d93b
00000370: 38d6 fabb 8d79 4c3d f8d2 1b3d 4b4a 543d
00000380: a6e6 69bc ecad a13c 9915 03bd cbe6 983c
00000390: 1a14 0bbc f533 75bd ac5a a6bc 3f0e 0bbd
000003a0: 60e1 b7bd a225 85bd 34e2 07bc ab0c 133c
000003b0: cb05 633d 8209 68bc 0eb1 77bd 0eb5 c2bb
000003c0: b51a 54bc 1ee2 d1ba 2937 6abd 44e2 a4bd
000003d0: 4333 8ebc 2029 e8bb 37f4 e73b e416 b5bb
000003e0: 4639 b6bc 82d6 d03c 69bc 733d 9cce 1d3c
000003f0: 0c08 7a3a 49ba d23c 245b 22bc b633 0c3d

bias f4 [256]
0.036949825 -0.07744241 0.027054552 0.08362253 0.16643466 -0.07744577 0.06911791 0.008914523
0.07518448 0.047236294 -0.14225625 0.1577143 -0.29029968 0.0141869355 -0.0029035606 0.030593807
-0.14617208 0.1007407 -0.16724426 0.08565839 0.26757807 -0.0078069316 0.085037574 -0.068967104
-0.020812277 0.28103417 0.20615128 -0.005747333 -0.03062393 0.11239975 0.18699527 0.28259626
0.090656124 0.04527528 0.21518792 0.09578234 -0.25052005 0.040178698 0.07248182 0.18246895
-0.022852404 0.021072892 -0.079808906 0.11896477 0.050248634 -0.021044727 -0.022014344 0.17023794
0.19438721 -0.011191785 0.39970452 0.25682858 -0.18681164 -0.075878866 -0.2935417 0.04719392
0.3140615 0.24193732 -0.14895056 0.112790346 -0.13748758 0.073191606 0.0111056 0.02849506
-0.006599663 -0.010199212 -0.105638325 0.112806916 0.14078128 0.018204222 0.047567245 0.38639638
0.06607001 0.27126577 0.16282369 0.16234575 0.09271953 0.025562584 0.014597415 0.074335046
-0.070663475 -0.013574061 0.18714936 0.03716138 0.09720927 0.14662805 0.17137961 -0.0033307117
0.09586 0.004441387 0.26080552 0.10694791 0.03690511 0.020363037 -0.13574727 0.020988718
0.07105724 0.0034365049 0.13119356 -0.004934046 -0.074448854 0.09569251 0.27416512 -0.016055234
0.044107847 0.023287473 0.2082673 0.08594625 -0.020295095 0.040874124 -0.019475324 -0.0660026
0.10134621 0.06300174 0.27411252 0.23929468 0.06577412 0.24123307 0.13696153 0.041055813
0.0608901 0.025543002 0.07703404 0.23685227 0.0358073 -0.010457932 0.06285233 0.10031916
0.002182743 -0.020252667 -0.13378786 0.06784847 -0.032507867 0.10423436 0.22541675 0.16551784
-0.11596459 0.007846584 -0.1560723 0.27525997 0.20364925 0.15295768 0.068231925 0.09307763
-0.19907162 0.16332878 -0.088443436 0.047533605 0.067077205 -0.11510297 0.09546834 -0.021435628
-0.095049284 -0.019914096 0.035743833 0.08406429 -0.026182817 -0.068009466 -0.047429997 0.02076079
0.15505974 0.09782297 0.20425485 0.0025604041 0.08799634 0.30004394 0.47241628 0.22168052
0.013019372 0.43271548 0.52831954 0.08218671 0.33236876 0.0020844755 0.041226227 0.01755623
-0.023750294 0.06267913 0.023517441 0.13597898 -0.029905204 0.19132121 0.06012288 -0.023451587
0.007102253 0.011131113 -0.029310714 0.15038721 0.12871559 -0.029417614 -0.014308245 0.049035296
0.09460213 0.017977273 0.06116299 0.18667473 -0.008842006 0.11510067 -0.033538833 -0.03135805
0.08486515 -0.009078955 0.034745477 -0.037733193 -0.103453174 -0.03801288 0.017002573 0.060787603
-0.04035774 -0.07417442 -0.02338232 0.004320501 0.024173472 -0.0071193697 0.021787677 0.02620902
0.08165874 0.053399865 0.011394415 -0.025327396 0.20805088 0.05566934 0.0016201385 -0.12101217
-0.033445105 0.072312705 -0.06265781 0.28894433 -0.061225787 0.02933054 0.1446882 -0.05298485
0.17250608 -0.015405341 0.06651778 0.091454744 0.0057589007 0.23174389 0.11872212 -0.00697322
0.081498824 0.15922534 0.22616115 -0.066736564 0.13732089 0.028204292 -0.021933269 0.0004615133
0.18167494 -0.055765655 -0.1900493 0.08074662 0.04141288 0.0200929 -0.02551807 -0.0006969683
00000000: b358 173d 209a 9ebd 82a1 dd3c 4a42 ab3d
00000010: d96d 2a3e e39b 9ebd b18d 8d3d 380e 123c
00000020: 52fa 993d d87a 413d 9fab 11be dc7f 213e
00000030: 29a2 94be 5270 683c aa49 3ebb dd9f fa3c
00000040: 22ae 15be 2451 ce3d 1442 2bbe aa6d af3d
00000050: feff 883e 4ad1 ffbb 2e28 ae3d a03e 8dbd
00000060: 827e aabc b6e3 8f3e 5219 533e 2054 bcbb
00000070: 09df fabc d731 e63d b07b 3f3e 75b0 903e
00000080: eba9 b93d 9272 393d 395a 5c3e 8829 c43d
00000090: 2a44 80be 6b92 243d 5971 943d 24d9 3a3e
000000a0: f734 bbbc 0fa1 ac3c da72 a3bd cda3 f33d
000000b0: 83d1 4d3d fe65 acbc 6d57 b4bc db52 2e3e
000000c0: 710d 473e c05d 37bc 12a6 cc3e 097f 833e
000000d0: 8d4b 3fbe 6166 9bbd 194b 96be 694e 413d
000000e0: abcc a03e 6bbe 773e 7f86 18be a0fe e63d
000000f0: 8bc9 0cbe 7be5 953d 43f4 353c 796e e93c
00000100: fc41 d8bb 981a 27bc e858 d8bd 5007 e73d
00000110: f828 103e 0521 953c dfd5 423d bfd5 c53e
00000120: b74f 873d 59e3 8a3e 41bb 263e f73d 263e
00000130: bde3 bd3d a068 d13c ff29 6f3c f93c 983d
00000140: 03b8 90bd bd65 5ebc 15a4 3f3e 8836 183d
00000150: a715 c73d aa25 163e 237e 2f3e 1248 5abb
00000160: 3f52 c43d 0e89 913b 4d88 853e 8107 db3d
00000170: d029 173d 62d0 a63c 5501 0bbe 88f0 ab3c
00000180: 7586 913d fc36 613b 9b57 063e c7ad a1bb
00000190: a478 98bd 6ffa c33d 5f5f 8c3e 4486 83bc
000001a0: 6eaa 343d 5fc5 be3c 0644 553e 9604 b03d
000001b0: e641 a6bc a06b 273d b78a 9fbc 5f2c 87bd
000001c0: 9a8e cf3d 0e07 813d 7a58 8c3e aa09 753e
000001d0: 95b4 863d cd05 773e a53f 0c3e 242a 283d
000001e0: e667 793d 8f3f d13c 06c4 9d3d 6789 723e
000001f0: adaa 123d bf57 2bbc b9b8 803d 2274 cd3d
00000200: 5a0c 0f3b ece8 a5bc afff 08be 23f4 8a3d
00000210: f826 05bd d378 d53d a6d3 663e 827d 293e
00000220: d87e edbd f58e 003c 6bd1 1fbe e0ee 8c3e
00000230: 6e89 503e f0a0 1c3e 2ebd 8b3d 7c9f be3d
00000240: 6ed9 4bbe a93f 273e d521 b5bd 99b2 423d
00000250: c65f 893d 1bbb ebbd e884 c33d c599 afbc
00000260: 33a9 c2bd e322 a3bc 2068 123d e629 ac3d
00000270: 597d d6bc 8c48 8bbd f545 42bd 8812 aa3c
00000280: fbc7 1e3e 6957 c83d 2f28 513e 74cc 273b
00000290: 6d37 b43d 5c9f 993e 8ce0 f13e 3800 633e
000002a0: 344f 553c e28c dd3e f33f 073f 8151 a83d
000002b0: 3d2c aa3e b29b 083b d5dc 283d 15d2 8f3c
000002c0: fa8f c2bc ea5d 803d a6a7 c03c 133e 0b3e
000002d0: c2fb f4bc b5e9 433e 6943 763d 8b1d c0bc
000002e0: 04ba e83b 465f 363c 061d f0bc 1bff 193e
000002f0: 05ce 033e 35fd f0bc 216d 6abc 3cd9 483d
00000300: c3be c13d 1345 933c 0b86 7a3d a927 3f3e
00000310: 10de 10bc e6b9 eb3d 0460 09bd 4c71 00bd
00000320: c8cd ad3d e6bf 14bc 4651 0e3d 1f8e 1abd
00000330: 42df d3bd 65b3 1bbd fb48 8b3c 6cfc 783d
00000340: 284e 25bd c2e8 97bd 478c bfbc fd92 8d3b
00000350: 7207 c63c 9a49 e9bb 127c b23c 4cb4 d63c
00000360: b33c a73d d1b9 5a3d a4af 3a3c 667b cfbc
00000370: 4a0b 553e 8905 643d d45a d43a 3bd5 f7bd
00000380: bcfd 08bd af18 943d bd52 80bd 83f0 933e
00000390: e4c7 7abd 9a46 f03c 2529 143e a406 59bd
000003a0: 6fa5 303e af66 7cbc 793a 883d a04c bb3d
000003b0: 29b5 bc3b 454e 6d3e 9524 f33d 9c7f e4bb
000003c0: dbe8 a63d f80b 233e ca96 673e 2ead 88bd
000003d0: d99d 0c3e b00c e73c 66ad b3bc 44f7 f139
000003e0: ff08 3a3e 876a 64bd 499c 42be 7c5e a53d
000003f0: 8da0 293d de99 a43c 460b d1bc c0b4 36ba

weight f4 [10, 256]
-0.15847942 -0.22160392 -0.015363079 -0.14980376 -0.20357889 0.047500536 0.073441036 0.13047226
-0.08545926 -0.07619474 -0.12082635 -0.07729205 -0.086653635 -0.030579677 0.0037165284 0.0009599228
-0.1088411 -0.08013289 -0.033766016 0.24690065 0.019521452 0.021804875 0.079196095 -0.17287849
-0.091113806 -0.12199421 -0.015320044 -0.026099678 0.06926725 -0.092648715 -0.02492332 0.08063436
-0.028536338 -0.085434094 0.41869912 -0.044230383 -0.037969086 -0.041962188 0.08855719 -0.13149086
0.036387295 0.04134651 -0.057697933 -0.10099777 0.082264416 0.06313568 0.014638432 0.08726416
0.48659304 0.052636884 -0.067658216 0.22488508 0.11930757 -0.009737162 0.18143353 0.10023421
-0.009728758 -0.10230495 -0.041996133 0.032331698 0.04482241 0.017457068 0.064942755 -0.024155023
-0.059300855 -0.04727477 -0.08505629 -0.03412546 0.063884474 0.11380829 -0.17559692 -0.071585454
-0.104592316 0.41122612 -0.12372149 0.20183311 -0.09113645 -0.18887883 -0.0611828 -0.046611022
-0.04131585 0.06416294 0.30252013 -0.0022610903 0.14149469 -0.05258907 -0.076457225 0.046678584
-0.3128118 -0.063277446 0.11333415 -0.051880684 -0.030024517 0.05907027 -0.023470812 -0.08037388
0.043781914 0.06376251 0.07537636 0.1913347 -0.014563348 0.04542467 -0.10668498 0.24226213
-0.14669274 -0.045870673 -0.07378738 0.047542166 0.03894623 -0.060929522 0.07011689 -0.013743691
-0.08246387 0.11546485 0.054373853 -0.030988213 -0.13804905 -0.0625714 -0.1303537 0.29442233
-0.037944295 0.0018287369 -0.06923514 0.4117107 -0.028579244 -0.0055048466 0.008423294 0.2425887
-0.045058332 -0.059928242 -0.09013476 -0.047804248 -0.07120349 -0.1056574 0.5093884 -0.17757462
-0.12949471 -0.032817073 0.02387913 -0.015702583 -0.020795418 0.06868191 -0.04054755 0.08119651
0.014561227 -0.04278066 0.123649664 -0.03466913 0.12409411 0.062482134 -0.021777127 0.1668049
0.029369297 0.012462434 0.044866398 0.09038119 -0.0026608184 -0.10557841 0.0610455 -0.022639653
0.21191518 0.26588657 -0.12960678 -0.0060202586 0.52490294 -0.32321903 -0.07592267 -0.081542745
0.04893462 -0.29024366 0.7837582 -0.035832185 0.38775754 -0.03366102 0.049481183 -0.13353162
-0.07658064 0.041369323 -0.09019648 -0.17055775 -0.07693364 -0.11287926 0.2128575 -0.05244173
0.05009787 0.03580098 -0.07616132 -0.0631922 0.28335854 0.12681733 -0.023821315 0.124426834
-0.041830413 -0.067822486 -0.06697123 -0.093634576 0.024655376 -0.21699013 0.09310279 0.05861986
0.01236502 0.08180429 0.0021851426 0.10882291 0.078870185 0.061939146 -0.09826248 -0.09130915
0.061357237 0.06740147 0.00021884279 -0.017052194 0.055428043 -0.059314165 0.046687994 -0.12896892
-0.057493538 0.05193686 0.046207726 0.053176895 0.09347144 -0.05127699 0.035933323 -0.2956586
0.057129774 0.1107898 -0.11076775 -0.011575851 -0.15548705 0.00182993 0.39265198 -0.2326033
-0.10205852 0.009470681 -0.06726108 -0.08938632 0.04361758 0.25990126 -0.050981164 -0.004627203
0.18199919 0.14718899 -0.116977304 0.043919787 0.08952766 0.050267898 -0.01381205 -0.06846067
-0.11520247 -0.020803329 0.0857405 -0.07315605 0.046613034 -0.22342287 -0.06843381 -0.09218112
00000000: 6e48 22be 23ec 62be 6cb5 7bbc 2866 19be
00000010: fc76 50be ec8f 423d 4168 963d 859a 053e
00000020: 4405 afbd fd0b 9cbd ce73 f7bd 4b4b 9ebd
00000030: 7677 b1bd 3b82 fabc 0091 733b 54a3 7b3a
00000040: 15e8 debd b61c a4bd 3c4e 0abd 86d3 7c3e
00000050: 74eb 9f3c 23a0 b23c 9031 a23d 0f07 31be
00000060: e099 babd 1ad8 f9bd ec00 7bbc fece d5bc
00000070: fddb 8d3d 9cbe bdbd fe2b ccbc a123 a53d
00000080: 0ac5 e9bc 12f8 aebd bb5f d63e eb2a 35bd
00000090: 7985 1bbd 8be0 2bbd 795d b53d 8aa5 06be
000000a0: d80a 153d f55a 293d ab54 6cbd ebd7 cebd
000000b0: 3f7a a83d 484d 813d 09d6 6f3c 8db7 b23d
000000c0: b922 f93e c699 573d 6490 8abd 4648 663e
000000d0: 8757 f43d 9e88 1fbc b6c9 393e 9847 cd3d
000000e0: 5e65 1fbc 4285 d1bd 2304 2cbd 3e6e 043d
000000f0: b497 373d 2002 8f3c b500 853d c1e0 c5bc
00000100: 74e5 72bd 30a3 41bd fe31 aebd 23c7 0bbd
00000110: ddd5 823d 5214 e93d aecf 33be 659b 92bd
00000120: 7f34 d6bd 3b8c d23e b161 fdbd 57ad 4e3e
00000130: bfa5 babd 7469 41be d19a 7abd 33eb 3ebd
00000140: cf3a 29bd dc67 833d ebe3 9a3e cd2e 14bb
00000150: fce3 103e a367 57bd 9b95 9cbd 0b32 3f3d
00000160: de28 a0be 9b97 81bd bc1b e83d d780 54bd
00000170: faf5 f5bc abf3 713d dc45 c0bc 109b a4bd
00000180: aa54 333d eb95 823d ec5e 9a3d 3eed 433e
00000190: 1c9b 6ebc 380f 3a3d a87d dabd 9013 783e
000001a0: 9f36 16be e3e2 3bbd d61d 97bd 93bb 423d
000001b0: 1586 1f3d 3c91 79bd 7299 8f3d 382d 61bc
000001c0: d1e2 a8bd d678 ec3d 1eb7 5e3d feda fdbc
000001d0: bb5c 0dbe 6f25 80bd 717b 05be 86be 963e
000001e0: 7a6b 1bbd 3ab2 ef3a 27cb 8dbd bfcb d23e
000001f0: 051f eabc 0062 b4bb db01 0a3c 2c69 783e
00000200: 168f 38bd 5177 75bd 9398 b8bd 63ce 43bd
00000210: 23d3 91bd e862 d8bd 4767 023f 1fd6 35be
00000220: 439a 04be 326b 06bd 2a9e c33c b4a2 80bc
00000230: 275b aabc 1aa9 8c3d 3015 26bd 5b4a a63d
00000240: 3692 6e3c c63a 2fbd 093c fd3d 3801 0ebd
00000250: 0e25 fe3d 44ed 7f3d f265 b2bc e7ce 2a3e
00000260: e197 f03c 3d2f 4c3c d4c5 373d c619 b93d
00000270: 2061 2ebb 7e39 d8bd d90a 7a3d cb76 b9bc
00000280: 4b00 593e 4922 883e a4b7 04be 9745 c5bb
00000290: 0a60 063f f77c a5be 587d 9bbd e2ff a6bd
000002a0: ab6f 483d d19a 94be 61a4 483f c5c4 12bd
000002b0: 2888 c63e 23e0 09bd c8ac 4a3d 83bc 08be
000002c0: 50d6 9cbd e172 293d efb8 b8bd b1a6 2ebe
000002d0: 628f 9dbd 3e2d e7bd 51f7 593e 24cd 56bd
000002e0: 6d33 4d3d 0ca4 123d 77fa 9bbd ea6a 81bd
000002f0: 5f14 913e 67dc 013e eb24 c3bc 7fd3 fe3d
00000300: 5e56 2bbd 84e6 8abd 3628 89bd 7cc3 bfbd
00000310: 12fa c93c a932 5ebe adac be3d 611b 703d
00000320: a796 4a3c 0289 a73d 9c34 0f3b 8cde de3d
00000330: b186 a13d e7b3 7d3d d73d c9bd 4b00 bbbd
00000340: ba51 7b3d c809 8a3d 2a79 6539 0bb1 8bbc
00000350: 8408 633d 69f3 72bd e93b 3f3d 6e10 04be
00000360: 587e 6bbd bfbb 543d 5044 3d3d 04d0 593d
00000370: f46d bf3d d207 52bd d22e 133d 9060 97be
00000380: e900 6a3d c3e5 e23d 34da e2bd a3a8 3dbc
00000390: ff37 1fbe 43da ef3a ae09 c93e 8f2f 6ebe
000003a0: 0f04 d1bd ea2a 1b3c 2dc0 89bd 2d10 b7bd
000003b0: 59a8 323d c711 853e a0d1 50bd cb9f 97bb
000003c0: ff5d 3a3e b6b8 163e cc91 efbd 3ce5 333d
000003d0: 475a b73d b6e5 4d3d f04b 62bc 1c35 8cbd
000003e0: 46ef ebbd be6b aabc b798 af3d d7d2 95bd
000003f0: 4fed 3e3d f7c8 64be 0627 8cbd 74c9 bcbd

bias f4 [10]
0.26942244 -0.39609095 0.40641743 0.29599464 -0.33471203 0.5854359 0.54216474 -0.030819496
-0.20466246 -1.0474068
00000000: bdf1 893e 6fcc cabe f215 d03e 9c8c 973e
00000010: 605f abbe 21df 153f 4fcb 0a3f 2b79 fcbc
00000020: 0993 51be 6d11 86bf
